sheet-music-scanner/src/assets/models/staff_detector.tflite (tflite, 43192 bytes, 5 tensors)

arith.constant f2 [32, 3, 3, 3]
00000000: 48ac be2c 0fad 7aac e92b 0e2b 52ab f0a9
00000010: 57ad 4d29 ba2e e1a1 1828 142c 101b be2a
00000020: 0c2d 3ba7 dcaf 06ae 1891 43ad e9a3 7faf
00000030: d729 68a6 909e 1a30 672d 03ab 072a 0fb0
00000040: 362e 1e2e 9925 ec27 86ae ffaa 88a2 2dac
00000050: 4628 67ae aa2d fb29 20b0 53b0 1027 baa4
00000060: 5eab a22e 02a6 dba4 4419 5c2e 3caa 2d27
00000070: 11a9 57ad 57a9 47af 9a14 57ac 2d25 0b2d
00000080: 412c 8621 cda2 93ae 7912 a6a9 1e30 152c
00000090: 8bab 5126 c5ac 12b0 2225 a5ac 36ae 5f1c
000000a0: d92b ae27 74ad 1130 dca8 7a2d 54ad 1b30
000000b0: 6caf 671d 56a5 e8ad 341a 5a95 8aa8 5c2f
000000c0: 0d28 a5ab 3c2e 87a3 6d2a acab 8fa7 e824
000000d0: 962b b6a4 2eac 1228 152a 71ae 4a2e d12d
000000e0: c92d bdad 6430 1025 5ca7 2b2e 75a5 e82e
000000f0: 172f e827 1730 85ae e02b f4a7 de1a 49a8
00000100: 66ad d8a5 09a9 1930 4d0a 04b0 ff27 e829
00000110: 9d27 21b0 02ad 472e c114 08ae b22f 2f28
00000120: 352e 38ad 21b0 7629 93af 3c2b 7ea0 0e30
00000130: 2c30 d62d 0630 90ad 9aa6 ffaf cc25 e428
00000140: 2d30 172d c627 caa6 4b2e cf2d 86a4 b3ae
00000150: 77ac 23a5 e62d 9fae ffac 6baa f126 59ae
00000160: 1f9c 45b0 b7aa 75a8 2eb0 c2ae 3a20 a8ac
00000170: 68ac 5330 742b fead fd21 fe9e 4e2d 1a2f
00000180: 55ad f22e 182c 1bb0 7728 96ad cdaf 8429
00000190: 6d2d c108 88a1 50b0 49a9 9427 50a1 1ab0
000001a0: 8c29 9e29 0030 0c24 5daa 65ad 51a4 f027
000001b0: 51af c2ae 4ba4 182a 2a30 2d2d 7520 0122
000001c0: 62b0 15a5 c2ac f7af 152f c027 8b28 4330
000001d0: a329 3f2a b329 0a19 5b2b 64a3 ae2c 46a7
000001e0: da2d d225 86af b4af 1b2f 1a2a a9ad b02c
000001f0: 8fac e22d 33ae 63a8 252e b8a9 d52b 43ad
-0.0669 0.0741 -0.07904 -0.06995 0.0618 0.0551 -0.0572 -0.0464
-0.08344 0.0414 0.1051 -0.01148 0.03198 0.0637 0.003448 0.05267
0.07886 -0.02824 -0.1228 -0.0941 -0.000622 -0.0822 -0.01545 -0.1171
0.04562 -0.02502 -0.00641 0.1282 0.0844 -0.05478 0.0471 -0.1268
0.09705 0.0956 0.02187 0.03094 -0.1019 -0.05466 -0.01276 -0.06525
0.0334 -0.10004 0.0885 0.04672 -0.1289 -0.1351 0.02759 -0.01846
-0.05756 0.10364 -0.02347 -0.01897 0.002571 0.09937 -0.0487 0.02803
-0.03958 -0.08344 -0.04172 -0.1137 0.001123 -0.0678 0.02022 0.0788
0.06647 0.01079 -0.01328 -0.1027 0.00079 -0.04413 0.1287 0.0638
-0.05893 0.02467 -0.0745 -0.1272 0.02005 -0.0726 -0.09705 0.00427
0.0613 0.03 -0.0852 0.1271 -0.03796 0.0856 -0.08325 0.1283
-0.11597 0.005276 -0.02084 -0.0923 0.003029 -0.001307 -0.03546 0.115
0.03165 -0.05972 0.0974 -0.0147 0.0502 -0.05994 -0.02953 0.01917
0.05927 -0.0184 -0.0653 0.0318 0.04752 -0.10065 0.09827 0.0909
0.0904 -0.08966 0.1372 0.01978 -0.02875 0.0964 -0.02132 0.1079
0.1108 0.03088 0.1278 -0.10187 0.06152 -0.03107 0.003353 -0.03348
-0.08435 -0.02283 -0.03934 0.128 0.0001923 -0.1255 0.03123 0.04614
0.02974 -0.129 -0.07825 0.0981 0.001161 -0.09424 0.12024 0.03268
0.097 -0.08154 -0.129 0.04266 -0.11835 0.05652 -0.00877 0.1267
0.1304 0.0912 0.1257 -0.0869 -0.02579 -0.12494 0.02264 0.0382
0.1305 0.0795 0.03036 -0.02652 0.0983 0.09076 -0.01767 -0.1047
-0.06976 -0.02007 0.09216 -0.10345 -0.07806 -0.05014 0.02711 -0.0992
-0.004025 -0.1334 -0.05246 -0.03482 -0.1306 -0.1056 0.008255 -0.07275
-0.06885 0.1351 0.05823 -0.0936 0.011696 -0.00683 0.0829 0.11096
-0.0833 0.1085 0.06396 -0.1283 0.03488 -0.0873 -0.1219 0.0431
0.0848 0.0001451 -0.0108 -0.1348 -0.0413 0.0296 -0.010376 -0.1282
0.04333 0.04388 0.125 0.01581 -0.0497 -0.0843 -0.01686 0.031
-0.1143 -0.1056 -0.01677 0.0476 0.1301 0.0809 0.008705 0.01173
-0.137 -0.01985 -0.07434 -0.12445 0.11066 0.03027 0.0355 0.1332
0.04404 0.0488 0.04453 0.00246 0.05746 -0.014435 0.0731 -0.02841
0.09143 0.02274 -0.11755 -0.12036 0.111 0.04767 -0.08844 0.07324
-0.0712 0.0919 -0.09686 -0.03427 0.096 -0.04468 0.0612 -0.0822

arith.constant1 f2 [32]
00000000: 0000 0000 0000 0000 0000 0000 0000 0000
00000010: 0000 0000 0000 0000 0000 0000 0000 0000
00000020: 0000 0000 0000 0000 0000 0000 0000 0000
00000030: 0000 0000 0000 0000 0000 0000 0000 0000
0.0 0.0 0.0 0.0 0.0 0.0 0.0 0.0
0.0 0.0 0.0 0.0 0.0 0.0 0.0 0.0
0.0 0.0 0.0 0.0 0.0 0.0 0.0 0.0
0.0 0.0 0.0 0.0 0.0 0.0 0.0 0.0

arith.constant2 f2 [64]
00000000: 0000 0000 0000 0000 0000 0000 0000 0000
00000010: 0000 0000 0000 0000 0000 0000 0000 0000
00000020: 0000 0000 0000 0000 0000 0000 0000 0000
00000030: 0000 0000 0000 0000 0000 0000 0000 0000
00000040: 0000 0000 0000 0000 0000 0000 0000 0000
00000050: 0000 0000 0000 0000 0000 0000 0000 0000
00000060: 0000 0000 0000 0000 0000 0000 0000 0000
00000070: 0000 0000 0000 0000 0000 0000 0000 0000
0.0 0.0 0.0 0.0 0.0 0.0 0.0 0.0
0.0 0.0 0.0 0.0 0.0 0.0 0.0 0.0
0.0 0.0 0.0 0.0 0.0 0.0 0.0 0.0
0.0 0.0 0.0 0.0 0.0 0.0 0.0 0.0
0.0 0.0 0.0 0.0 0.0 0.0 0.0 0.0
0.0 0.0 0.0 0.0 0.0 0.0 0.0 0.0
0.0 0.0 0.0 0.0 0.0 0.0 0.0 0.0
0.0 0.0 0.0 0.0 0.0 0.0 0.0 0.0

arith.constant6 f2 [64, 3, 3, 32]
00000000: 4d2c dc23 12ac 7c27 fba5 af20 7cac 2ea8
00000010: 87a2 f7ab 26a0 b7a9 71ab 5a2b d6aa 8c0e
00000020: eaac 95a9 ff2c 7e2b 722c 3f2d 8527 e529
00000030: a6aa 3e20 1fa6 1da9 9227 bdac 162d 6e2a
00000040: c9a9 73ab efa7 5520 0ea6 791f cc2b b0a8
00000050: c8ab 8d18 3da9 91a4 11a9 9fab cca8 b12b
00000060: 08aa b399 3ca5 872a 4baa 5893 a02a b42b
00000070: f427 f7a9 9aab 11a4 be1f 372d 6d28 b025
00000080: 79a3 6d29 84a8 0e21 6629 ee98 36aa 1a23
00000090: fba5 4429 5c2b 82a2 eb9e 252d c2a4 c6a9
000000a0: 39aa 1fa1 172a 479b 0e2b 4d2b 332b f1aa
000000b0: 4517 54a8 f410 232c 342c 75ac f814 6aa8
000000c0: 32a7 ce2c 88ac ce28 19a3 5e25 d524 b1a4
000000d0: 65ac fda7 80a1 d22c 4328 8c2c 80ab af2c
000000e0: 272a f62c c42c 0ba7 39aa 542a 882c 3d2c
000000f0: 4420 2928 aea0 c1ac eb28 d8a9 142c ebaa
00000100: 2ba3 9ba6 d32a 102a 532c 991a 0ba6 6ba0
00000110: be1d 6529 6c20 52ac f929 52a7 04ac 6cac
00000120: afaa e02c 11a2 ea95 d224 13a7 f126 ae25
00000130: 73ab 21a4 162c 5a0d b9a1 f9a8 602a 1129
00000140: 8626 3299 d49c 1eab b0a6 a029 ad8f 0bab
00000150: 5aa6 41a2 a72c 01ab 76a2 362b 91a3 6e29
00000160: d72c 1b21 32ab 19ab b72c 9094 a52a 3f29
00000170: 772a e3ac 61ab 7526 3b2b 382d ac2b 0525
00000180: 312c 66a2 c62a 5da9 99ac ce29 102d cb28
00000190: 562c 329d 3da9 a72c 8123 192a 7ba3 99a6
000001a0: a6a4 0b2a f1a8 d920 bb2c a712 ab9c 11a8
000001b0: 1525 cb1d 37ad 64aa 5d2b 4a9f 5f2a f128
000001c0: 9e23 84a9 b5ac 921d 3a28 4ca1 4b2a 24a8
000001d0: df24 20a0 5e2c 002d 9cac f2a8 4cac 06aa
000001e0: 0ea3 6c24 0d29 d02c f413 8720 812b 92a7
000001f0: 5e25 d829 ccac 37ac 6f22 30a8 d3ab 2aad
0.0672 0.01535 -0.0636 0.02924 -0.02336 0.00915 -0.07007 -0.03265
-0.01275 -0.06223 -0.0081 -0.04465 -0.05814 0.05743 -0.0534 0.0003996
-0.0768 -0.0436 0.07806 0.05853 0.06946 0.082 0.02937 0.04605
-0.05194 0.008286 -0.02391 -0.03995 0.02957 -0.07404 0.07947 0.05023
-0.0452 -0.0582 -0.03099 0.00846 -0.02365 0.007298 0.0609 -0.03662
-0.0608 0.002222 -0.04092 -0.01784 -0.03958 -0.05954 -0.03748 0.0601
-0.04712 -0.002783 -0.02045 0.051 -0.04916 -0.0008965 0.05176 0.06018
0.03107 -0.0466 -0.0594 -0.01588 0.00756 0.0815 0.03458 0.02222
-0.014595 0.0424 -0.03528 0.00987 0.04218 -0.002407 -0.04852 0.01387
-0.02336 0.04114 0.0575 -0.01271 -0.006756 0.0804 -0.01859 -0.0451
-0.0486 -0.01 0.04758 -0.003553 0.0551 0.05704 0.05624 -0.05423
0.001775 -0.0338 0.0006046 0.06464 0.0657 -0.06964 0.001213 -0.0345
-0.0281 0.0751 -0.0708 0.03754 -0.01386 0.02097 0.01888 -0.01833
-0.06866 -0.0312 -0.01074 0.0753 0.0333 0.07104 -0.0586 0.0732
0.04807 0.0775 0.07446 -0.02751 -0.0486 0.04944 0.0708 0.0662
0.00833 0.0325 -0.00914 -0.0743 0.03842 -0.04565 0.0637 -0.05405
-0.014 -0.0258 0.0533 0.04736 0.06757 0.003222 -0.0236 -0.00863
0.005608 0.04214 0.00864 -0.0675 0.04666 -0.0286 -0.06274 -0.0691
-0.05222 0.0762 -0.01185 -0.001444 0.01883 -0.02763 0.02711 0.02219
-0.0582 -0.01613 0.06384 0.0003266 -0.01118 -0.03885 0.0498 0.03958
0.02548 -0.002537 -0.004715 -0.0556 -0.02612 0.04395 -0.0004685 -0.05502
-0.02481 -0.012215 0.0727 -0.05472 -0.01262 0.05634 -0.01478 0.04242
0.0756 0.00997 -0.0562 -0.05545 0.07367 -0.001114 0.0519 0.041
0.0505 -0.07635 -0.05765 0.02522 0.0565 0.08154 0.05994 0.0196
0.0655 -0.0125 0.05292 -0.0419 -0.07184 0.04535 0.0791 0.03745
0.06775 -0.005074 -0.04092 0.0727 0.014656 0.04764 -0.01461 -0.02577
-0.01816 0.0472 -0.0386 0.00947 0.0739 0.000812 -0.00456 -0.03177
0.01985 0.005657 -0.0815 -0.04993 0.05753 -0.00712 0.04977 0.0386
0.01488 -0.0431 -0.07355 0.00544 0.03302 -0.010345 0.04916 -0.03235
0.01903 -0.00806 0.06824 0.0781 -0.072 -0.03864 -0.06714 -0.04706
-0.01378 0.01727 0.03946 0.0752 0.000971 0.00884 0.05862 -0.02957
0.02097 0.04565 -0.07495 -0.06586 0.012566 -0.0327 -0.06113 -0.0807

arith.constant10 f2 [1, 1, 1, 64]
00000000: eeb0 2d33 df33 2934 4a9e 35b0 87ab f5b2
00000010: 3e30 1fad f4b2 6134 faac d727 24ae 2c33
00000020: c4b0 aeb4 7031 472e b034 0230 bd2f 44b3
00000030: 3a24 7432 8aa1 a0ac 1ca9 66af 122b 39b2
00000040: 1a30 ad28 7634 4ab4 4fb4 ca34 9ca9 ba31
00000050: 18b2 3a25 cab2 2cb4 e2a8 8fa0 40b4 2e23
00000060: e2b0 832e 14ae bab3 4f33 3e34 7e94 9834
00000070: 9b99 fe1f f1b2 4530 372e dd2e 01ab d932
-0.154 0.2242 0.246 0.26 -0.00614 -0.1315 -0.0588 -0.2174
0.1326 -0.08 -0.2173 0.2737 -0.07776 0.03062 -0.09595 0.2241
-0.1489 -0.2925 0.1699 0.0981 0.293 0.1252 0.1209 -0.227
0.01651 0.2017 -0.01082 -0.07227 -0.03992 -0.1156 0.05524 -0.1945
0.1282 0.03653 0.2788 -0.268 -0.2693 0.2993 -0.04382 0.179
-0.1904 0.02042 -0.2122 -0.2607 -0.03815 -0.0089 -0.2656 0.01402
-0.1526 0.10175 -0.095 -0.2415 0.2284 0.2651 -0.001097 0.287
-0.002737 0.007805 -0.2169 0.1334 0.0971 0.10724 -0.05472 0.214
