sheet-music-scanner/src/assets/models/symbol_recognizer.tflite (tflite, 58232 bytes, 5 tensors)

arith.constant f2 [32, 3, 3, 3]
000000 69 a9 8b 99 cd aa d8 2c da a5 3e 2a 25 ac 05 2c
       -0.04227 -0.002707 -0.05313 0.0757 -0.02286 0.04877 -0.06476 0.0628
000010 01 2a 1a 30 86 a4 4f 2e 10 2f 09 22 37 2c 21 30
       0.0469 0.1282 -0.01767 0.0986 0.11035 0.01179 0.06586 0.129
000020 5d ad a7 2c 65 22 79 2d 49 ab 0b b0 f9 aa b8 a8
       -0.0838 0.0727 0.01249 0.0855 -0.05692 -0.1263 -0.05447 -0.03687
000030 18 2a a3 29 60 28 48 2b f4 9f e8 25 2e 2c 75 a9
       0.0476 0.04404 0.03418 0.0569 -0.007767 0.02307 0.0653 -0.04263
000040 f8 28 11 a4 8e 2c 29 2d f5 af 5c ac 3c ad d9 25
       0.03882 -0.01588 0.07117 0.0806 -0.1243 -0.0681 -0.0818 0.02284
000050 ea 2c e7 2d a1 20 31 ac 53 26 3b ac 60 af e0 2e
       0.0768 0.0922 0.00904 -0.0655 0.0247 -0.0661 -0.11523 0.1074
000060 42 28 d0 2d fd a5 bd 24 ba 2c 7c 2d 0d 24 7c ae
       0.03326 0.0908 -0.02339 0.01851 0.07385 0.0857 0.01582 -0.1013
000070 7d 2e 7a ad dd a1 5f 1c cb ae 02 a9 61 a9 1f 26
       0.1014 -0.0856 -0.01145 0.00427 -0.10614 -0.03912 -0.04202 0.02391
000080 4c b0 ff ae fd af b3 2c f3 ac 4d ad 98 ae fb 2b
       -0.1343 -0.1093 -0.1248 0.0734 -0.07733 -0.0828 -0.103 0.06235
000090 7a 2e 53 2b 06 b0 6d 2c 03 9e e0 2d b6 af 95 ab
       0.1012 0.05722 -0.1257 0.06915 -0.00587 0.0918 -0.1205 -0.05923
0000a0 99 2e 3e 30 d6 a7 4b 2f b9 1d 8d af 06 a6 a3 2b
       0.1031 0.1326 -0.03061 0.11395 0.00559 -0.118 -0.02353 0.05966
0000b0 e8 ac 23 1c d9 a6 65 ae 76 a4 5c a8 37 af 06 a9
       -0.07666 0.00404 -0.02675 -0.0999 -0.01743 -0.03406 -0.11273 -0.03925
0000c0 b9 2c 23 2d ce 2c b1 ae 06 2a 8a 2e 51 b0 39 2b
       0.0738 0.08026 0.0751 -0.10455 0.04706 0.1022 -0.1349 0.05643
0000d0 4d ae 31 2e 2e 22 f9 ad cc 9e 34 a8 cf 2e e8 a9
       -0.09845 0.09674 0.01207 -0.0933 -0.006638 -0.03284 0.1064 -0.04614
0000e0 a5 28 ba af de 29 57 2f 6f a7 b9 aa a4 aa e3 ac
       0.0363 -0.1207 0.04584 0.1147 -0.02904 -0.05252 -0.05188 -0.07635
0000f0 d8 2d 99 ac 13 af 11 2c 9c 9d 3b 30 a5 ae d5 2d
       0.0913 -0.07184 -0.11053 0.06354 -0.005478 0.1322 -0.1038 0.0911
000100 cd 2f 22 2a b7 ae 4b a8 31 2d 91 2c b0 ab 24 ad
       0.1219 0.0479 -0.1049 -0.03354 0.0811 0.07135 -0.06006 -0.0803
000110 78 2e 63 9c 8b a3 c4 2c 26 2d 8f 2d 6a 30 e7 ac
       0.1011 -0.004284 -0.01473 0.07446 0.08044 0.08685 0.138 -0.0766
000120 bd 21 44 aa 0b 2f 92 2f a4 a8 14 b0 2e aa 4e aa
       0.01121 -0.04895 0.11005 0.1183 -0.03625 -0.1274 -0.04828 -0.04926
000130 80 2f 96 a8 3c ac 08 2e 4d 2e 4d b0 0f ad 82 a8
       0.1172 -0.03583 -0.06616 0.09424 0.09845 -0.1344 -0.07904 -0.03522
000140 3a ac e0 aa da ae 4b 28 92 29 e8 ab 49 ac ad 26
       -0.06604 -0.0537 -0.10706 0.03354 0.04352 -0.06177 -0.06696 0.02608
000150 6c a9 4b ac a0 af 0c 1c 43 a8 81 22 ef a0 e2 af
       -0.04236 -0.0671 -0.11914 0.003952 -0.0333 0.0127 -0.009636 -0.12317
000160 c8 18 31 ac 8e 24 90 2c 19 2f 58 30 30 b0 72 2c
       0.002335 -0.0655 0.01779 0.0713 0.1109 0.1357 -0.1309 0.06946
000170 6e 2c 7c 29 19 2c 1c ad d1 af ae ae c5 aa 83 af
       0.0692 0.04285 0.064 -0.07983 -0.12213 -0.1044 -0.0529 -0.1174
000180 49 91 0d b0 2e 30 3c 2d e3 9d 58 b0 44 29 53 a7
       -0.000645 -0.1266 0.1306 0.0818 -0.00575 -0.1357 0.04114 -0.02861
000190 ac ad f6 ad ee a1 ce 28 75 a6 08 26 30 2e d9 ae
       -0.0886 -0.09314 -0.01158 0.03754 -0.02522 0.02356 0.0967 -0.107
0001a0 02 2f b0 a6 d3 2f c3 a8 05 a0 f9 2d 6b a5 ca 2d
       0.1095 -0.02612 0.12225 -0.0372 -0.00785 0.0933 -0.02116 0.09045
0001b0 43 ac 84 2c 17 ae 52 ac df ad 75 ac 0d a9 64 ad
       -0.0666 0.07056 -0.09515 -0.0675 -0.09174 -0.06964 -0.03946 -0.0842
0001c0 39 30 18 a5 23 a7 53 30 3f ac 68 30 0a ad 77 2e
       0.132 -0.0199 -0.02788 0.1351 -0.06635 0.1377 -0.07874 0.101
0001d0 78 29 05 ac 33 21 5c a8 12 a9 6d a8 79 ac 96 ad
       0.04272 -0.0628 0.010155 -0.03406 -0.0396 -0.03458 -0.0699 -0.0873
0001e0 5e 2b b9 24 d6 28 57 2f f0 ae 5d ad 08 2d 5f 2c
       0.05756 0.01845 0.03778 0.1147 -0.1084 -0.0838 0.0786 0.0683
0001f0 e7 ad 2c 2e 69 2d f6 2f 5d 2e 9e 2b a8 af 2c af
       -0.0922 0.09644 0.08453 0.1244 0.0994 0.0595 -0.1196 -0.11206

arith.constant1 f2 [64]
000000 00 00 00 00 00 00 00 00 00 00 00 00 00 00 00 00
       0.0 0.0 0.0 0.0 0.0 0.0 0.0 0.0
000010 00 00 00 00 00 00 00 00 00 00 00 00 00 00 00 00
       0.0 0.0 0.0 0.0 0.0 0.0 0.0 0.0
000020 00 00 00 00 00 00 00 00 00 00 00 00 00 00 00 00
       0.0 0.0 0.0 0.0 0.0 0.0 0.0 0.0
000030 00 00 00 00 00 00 00 00 00 00 00 00 00 00 00 00
       0.0 0.0 0.0 0.0 0.0 0.0 0.0 0.0
000040 00 00 00 00 00 00 00 00 00 00 00 00 00 00 00 00
       0.0 0.0 0.0 0.0 0.0 0.0 0.0 0.0
000050 00 00 00 00 00 00 00 00 00 00 00 00 00 00 00 00
       0.0 0.0 0.0 0.0 0.0 0.0 0.0 0.0
000060 00 00 00 00 00 00 00 00 00 00 00 00 00 00 00 00
       0.0 0.0 0.0 0.0 0.0 0.0 0.0 0.0
000070 00 00 00 00 00 00 00 00 00 00 00 00 00 00 00 00
       0.0 0.0 0.0 0.0 0.0 0.0 0.0 0.0

arith.constant2 f2 [32]
000000 00 00 00 00 00 00 00 00 00 00 00 00 00 00 00 00
       0.0 0.0 0.0 0.0 0.0 0.0 0.0 0.0
000010 00 00 00 00 00 00 00 00 00 00 00 00 00 00 00 00
       0.0 0.0 0.0 0.0 0.0 0.0 0.0 0.0
000020 00 00 00 00 00 00 00 00 00 00 00 00 00 00 00 00
       0.0 0.0 0.0 0.0 0.0 0.0 0.0 0.0
000030 00 00 00 00 00 00 00 00 00 00 00 00 00 00 00 00
       0.0 0.0 0.0 0.0 0.0 0.0 0.0 0.0

arith.constant4 f2 [128, 64]
000000 c1 29 da 28 94 b0 cb b0 7e 9d 6d 31 1b ad 1c 2b
       0.04495 0.0379 -0.1431 -0.1498 -0.005363 0.1696 -0.0798 0.05554
000010 72 31 3f 1d 1e a9 e6 2f 3b 2e 6f 1c 86 ae 72 27
       0.1702 0.005123 -0.03998 0.1234 0.09735 0.00433 -0.1019 0.02908
000020 fd ab c8 ac 18 b1 b9 b0 6a 29 b3 b0 4c 2e 50 31
       -0.0624 -0.0747 -0.1592 -0.1476 0.0423 -0.1469 0.0984 0.166
000030 a1 30 ef ac e1 2a f5 a8 ab 24 39 b0 e0 ae c1 2f
       0.1447 -0.0771 0.05374 -0.03873 0.01823 -0.132 -0.1074 0.12115
000040 a8 29 78 b1 62 a7 3f b0 47 aa b6 aa 38 28 7a 2a
       0.0442 -0.1709 -0.02884 -0.1327 -0.04904 -0.05243 0.03296 0.0506
000050 15 ac 0b ae 17 2f 99 2d 5f 2b f5 98 de ad d4 ac
       -0.0638 -0.0944 0.1108 0.08746 0.0576 -0.00242 -0.0917 -0.07544
000060 81 ae 6b b0 29 ab 64 ac 09 2f 9c 25 0f 30 1e 31
       -0.1016 -0.1381 -0.05594 -0.0686 0.1099 0.02191 0.1268 0.1599
000070 58 ad e7 30 00 ad 4c ab ce af b5 a9 b2 25 72 09
       -0.0835 0.1532 -0.0781 -0.057 -0.12195 -0.0446 0.02225 0.0001662
000080 00 30 15 a5 e3 2b c4 aa 6e b0 42 b1 77 2c 92 28
       0.125 -0.01985 0.0616 -0.05286 -0.1384 -0.1643 0.06976 0.0357
000090 49 b0 b7 aa b6 af e3 b0 ae 2f 0a 24 88 2f 0c 2f
       -0.1339 -0.05246 -0.1205 -0.1527 0.12 0.01578 0.1177 0.1101
0000a0 41 2d f0 2f 3d 2f 51 28 cc af 68 30 9c a6 97 98
       0.0821 0.124 0.1131 0.03372 -0.1218 0.1377 -0.02582 -0.002241
0000b0 a5 a1 42 2d d7 2e 13 30 2d ae bb b0 4d b0 29 af
       -0.011024 0.08215 0.1069 0.1273 -0.0965 -0.1478 -0.1344 -0.1119
0000c0 f9 30 42 ad d9 a8 56 29 19 30 70 2d df a9 bb af
       0.1554 -0.08215 -0.03787 0.0417 0.128 0.08496 -0.04587 -0.1208
0000d0 75 2a 19 af 0a a4 bf a5 46 2a 43 29 d3 13 40 b1
       0.05045 -0.1109 -0.01578 -0.02245 0.049 0.0411 0.000955 -0.1641
0000e0 30 28 22 a3 fd 30 d2 af 52 b0 66 a8 56 a6 de ae
       0.0327 -0.01393 0.1559 -0.1222 -0.135 -0.03436 -0.02475 -0.1073
0000f0 a6 b1 48 30 19 2b 7d ae ce af 3f a8 0f ac 5c af
       -0.1765 0.1338 0.05545 -0.1014 -0.12195 -0.03317 -0.0634 -0.115
000100 f3 2d 24 31 f5 af 21 2c 0b 28 2e ab 90 ac ae ad
       0.09296 0.1606 -0.1243 0.0645 0.0316 -0.0561 -0.0713 -0.08875
000110 0b ab 1b 2c b1 ac 3c ad 8f 9e 62 af 44 b1 5e 30
       -0.05502 0.06415 -0.0733 -0.0818 -0.006405 -0.11536 -0.1646 0.1365
000120 16 b1 cf 2c 76 2e 8a ae 12 2c 77 b0 2a 1f f5 b0
       -0.1589 0.07513 0.10095 -0.1022 0.0636 -0.1395 0.006996 -0.1549
000130 6d 2d f3 2f 42 ad 33 29 0d a5 5d ac f0 ad 50 a9
       0.0848 0.1242 -0.08215 0.04062 -0.01973 -0.0682 -0.0928 -0.0415
000140 15 2b bd ab 46 b1 6b ad 8d 30 e1 28 5e ae 75 ad
       0.05533 -0.06046 -0.1648 -0.08466 0.1422 0.03812 -0.0995 -0.08527
000150 f8 2c 79 18 7f af c0 2f 98 29 4c 31 2b aa 97 b1
       0.07764 0.002184 -0.1171 0.1211 0.0437 0.1655 -0.0482 -0.1747
000160 a7 ad 7e b0 c5 2d 09 b0 f5 30 95 25 dc a9 a2 2e
       -0.0883 -0.1404 0.09015 -0.1261 0.1549 0.0218 -0.04578 0.10364
000170 32 2d 54 2f b3 2f fa 28 77 30 53 b0 85 a8 61 b0
       0.0812 0.1145 0.1203 0.03888 0.1395 -0.1351 -0.0353 -0.1368
000180 68 2d 7b b1 4b a3 1c 2c 8c 20 18 2b 72 ad 0d 28
       0.0845 -0.1713 -0.014244 0.0642 0.00888 0.05542 -0.0851 0.03165
000190 7b 2b da b0 37 b0 9a 20 a0 31 80 ad 31 a7 0e 31
       0.05844 -0.1516 -0.1317 0.00899 0.1758 -0.08594 -0.02809 0.158
0001a0 cb 9e 7b 2b 1d a8 86 2f cc 30 54 ac 18 b1 02 a9
       -0.006634 0.05844 -0.03214 0.11755 0.1499 -0.0676 -0.1592 -0.03912
0001b0 87 31 1d 2c 53 a5 e2 2d 92 a5 3d a8 28 2d dc b0
       0.1727 0.0643 -0.0208 0.0919 -0.02176 -0.0331 0.08057 -0.1519
0001c0 cd 2e f8 2d 21 2c 27 2c 33 21 f2 b0 58 ad 6b 30
       0.10626 0.09326 0.0645 0.0649 0.010155 -0.1545 -0.0835 0.1381
0001d0 cf b0 5a 29 1c 31 53 a9 8a a9 9d b0 70 b1 6c b0
       -0.1503 0.0418 0.1597 -0.0416 -0.04327 -0.1442 -0.1699 -0.1382
0001e0 df 2d 1e 28 a5 b0 93 2f a6 29 48 b1 2e 28 04 2f
       0.09174 0.03217 -0.1451 0.11835 0.04413 -0.165 0.03265 0.1096
0001f0 0b 2f cb 1c 57 af 71 ad 4c 31 b3 30 67 30 77 2d
       0.11005 0.00468 -0.1147 -0.085 0.1655 0.1469 0.1376 0.0854

arith.constant5 f2 [64, 3, 3, 32]
000000 bb 2a 3a a8 01 aa 42 a9 25 a4 94 21 8c a1 61 a5
       0.05258 -0.03302 -0.0469 -0.04108 -0.01619 0.010895 -0.01083 -0.02101
000010 bd aa 80 ac 60 ac 96 2b 54 28 c3 29 8f ac 6f 28
       -0.05264 -0.0703 -0.06836 0.05927 0.0338 0.045 -0.0712 0.03464
000020 ee 2c d3 aa e6 2a 46 19 53 a9 1c 2d d9 ac 04 20
       0.077 -0.0533 0.0539 0.002575 -0.0416 0.07983 -0.07574 0.00784
000030 93 23 59 0b c2 a9 54 ac b2 ac 5b 28 22 a9 45 24
       0.01479 0.0002242 -0.04498 -0.0676 -0.07336 0.03403 -0.0401 0.01668
000040 55 1e eb a9 58 ab cd 99 5d 23 c6 ac 45 12 c7 29
       0.006184 -0.04623 -0.05737 -0.002832 0.01438 -0.0746 0.0007653 0.04514
000050 1b ab 9e a8 0f 2b 29 ad 14 2a fd 9f 80 27 41 18
       -0.0555 -0.03607 0.05515 -0.0806 0.0475 -0.0078 0.0293 0.002077
000060 7c a9 12 a7 c3 aa bb ab b6 20 45 2c 27 ab 5a 2a
       -0.04285 -0.02762 -0.05283 -0.0604 0.0092 0.0667 -0.05588 0.04962
000070 54 27 b0 aa 3e 2a 1f a0 0b a6 86 1c 85 a9 b4 ac
       0.02863 -0.05225 0.04877 -0.00805 -0.0236 0.004417 -0.04312 -0.0735
000080 33 ab b2 2c 88 24 14 a7 a2 a7 3f 2c 3d 2d 83 ac
       -0.05624 0.07336 0.0177 -0.02765 -0.02982 0.06635 0.08185 -0.0705
000090 2a 2d ce 29 c1 2c b4 2c 63 a9 1e 25 be a9 ab ac
       0.0807 0.04535 0.0743 0.0735 -0.04208 0.01999 -0.04486 -0.07294
0000a0 9c 27 0a a4 d4 98 20 2d 11 1c f2 95 b1 a7 76 a7
       0.02972 -0.01578 -0.002357 0.0801 0.00397 -0.0014515 -0.03004 -0.02914
0000b0 22 2c 6e 2a d7 ac 49 2d 17 29 63 ab 41 ac ed 2c
       0.0646 0.05023 -0.0756 0.0826 0.03976 -0.0577 -0.06647 0.07697
0000c0 72 29 72 ac b8 2c 4d 2d 0d ab 19 2b 8e 22 4f 1e
       0.04254 -0.06946 0.0737 0.0828 -0.05508 0.05545 0.0128 0.00616
0000d0 72 aa dc 28 ae a8 ab 28 b6 88 cd a8 7e 2a 67 29
       -0.05035 0.03796 -0.03656 0.03647 -0.0001438 -0.0375 0.05072 0.0422
0000e0 2f a7 72 a9 3a 28 7c 25 f4 ab 72 2c 6e 90 5f 9c
       -0.02806 -0.04254 0.03302 0.02142 -0.06213 0.06946 -0.0005407 -0.00427
0000f0 86 2a 99 a7 11 a9 17 ac cf 0a 35 27 59 a8 fc a9
       0.05096 -0.02968 -0.03958 -0.0639 0.0002078 0.02815 -0.03397 -0.04675
000100 81 98 0e ac 35 28 9b a8 74 a6 8d 29 32 2c b6 a8
       -0.0022 -0.06335 0.03287 -0.03598 -0.0252 0.04337 0.06555 -0.0368
000110 b8 2b 5d 2b d5 a4 f4 2b 19 2d be 24 55 ac de ab
       0.0603 0.05753 -0.01888 0.06213 0.07965 0.01852 -0.0677 -0.06146
000120 92 24 8d 1c 3d 28 70 2c b5 a9 97 a2 7a a7 3a a6
       0.01785 0.004444 0.0331 0.06934 -0.0446 -0.01287 -0.0292 -0.02432
000130 be a4 10 23 2a a1 d2 a0 b8 ac 94 1e 36 21 1c ab
       -0.01852 0.013794 -0.010086 -0.009415 -0.0737 0.006424 0.01018 -0.05554
000140 28 25 ab 1b 51 ad 52 9a 6c 2a 56 ac cf ac ee a6
       0.02014 0.003744 -0.08307 -0.003086 0.05017 -0.06775 -0.07513 -0.02707
000150 19 22 ec ac 7d 28 2a 16 2d 1c 10 2a 92 ac d0 25
       0.01191 -0.0769 0.03506 0.001505 0.004078 0.04736 -0.0714 0.0227
000160 67 aa fb 27 c5 a8 2b a8 ee ac 18 a6 e3 ab b0 ab
       -0.05002 0.03117 -0.03726 -0.03256 -0.077 -0.0238 -0.0616 -0.06006
000170 df a7 b6 2c d2 2c ff 2c 52 2a 75 a7 48 2d 37 ad
       -0.03075 0.0736 0.0753 0.07806 0.04938 -0.02913 0.0825 -0.0815
000180 0a aa 12 aa 56 28 7e 2c 80 95 79 1f 6f 2c 9c 9d
       -0.04718 -0.04742 0.03387 0.0702 -0.001343 0.007298 0.0693 -0.005478
000190 ff 2c 88 2b 61 23 7f a8 91 9e cf 2a 72 ab 3d 29
       0.07806 0.05884 0.01441 -0.03513 -0.006413 0.0532 -0.05817 0.04092
0001a0 57 0b a7 ac 91 28 39 ac bf 29 de 26 03 a8 7c a8
       0.000224 -0.0727 0.03568 -0.066 0.0449 0.02682 -0.03134 -0.03503
0001b0 83 ab 00 2b e1 29 b4 aa 95 9f bb ac 78 2c e5 1d
       -0.0587 0.0547 0.04593 -0.05237 -0.007404 -0.0739 0.0698 0.005756
0001c0 bc a8 35 ab f0 2c f4 2c 52 a1 8c a6 c8 ac 2e 29
       -0.037 -0.0563 0.07715 0.0774 -0.01039 -0.02557 -0.0747 0.04047
0001d0 1f 19 04 ad 7b 2b a3 20 69 a7 cf 2a 30 aa 7f 2c
       0.0025 -0.07837 0.05844 0.009056 -0.02895 0.0532 -0.04834 0.07025
0001e0 60 9f 26 a8 97 18 c0 29 ce ac 2b a6 fa a7 e8 28
       -0.007202 -0.0324 0.002241 0.04492 -0.0751 -0.0241 -0.03116 0.03833
0001f0 ae 2b db aa 0e ad 52 a2 af 2a 2f 22 20 26 97 a9
       0.06 -0.05356 -0.079 -0.012344 0.05222 0.01208 0.02393 -0.04367
